…
mmary() . . Model: &#34;neural_collaborative_filtering&#34; __________________________________________________________________________________________________ Layer (type) Output Shape Param # Connected to ================================================================================================== user_id (InputLayer) [(None,)] 0 __________________________________________________________________________________________________ item_id (InputLayer) [(None,)] 0 __________________________________________________________________________________________________ mlp_user_embedding (Embedding) (None, 32) 30176 user_id[0][0] __________________________________________________________________________________________________ mlp_item_embedding (Embedding) (None, 32) 53824 item_id[0][0] __________________________________________________________________________________________________ flatten_2 (Flatten) (None, 32) 0 mlp_user_embedding[0][0] __________________________________________________________________________________________________ flatten_3 (Flatten) (None, 32) 0 mlp_item_embedding[0][0] __________________________________________________________________________________________________ mf_user_embedding (Embedding) (None, 4) 3772 user_id[0][0] __________________________________________________________________________________________________ mf_item_embedding (Embedding) (None, 4) 6728 item_id[0][0] __________________________________________________________________________________________________ concatenate (Concatenate) (None, 64) 0 flatten_2[0][0] flatten_3[0][0] __________________________________________________________________________________________________ flatten (Flatten) (None, 4) 0 mf_user_embedding[0][0] __________________________________________________________________________________________________ flatten_1 (Flatten) (None, 4) 0 mf_item_embedding[0][0] __________________________________________________________________________________________________ layer0 (Dense) (None, 8) 520 concatenate[0][0] __________________________________________________________________________________________________ multiply (Multiply) (None, 4) 0 flatten[0][0] flatten_1[0][0] __________________________________________________________________________________________________ layer1 (Dense) (None, 4) 36 layer0[0][0] __________________________________________________________________________________________________ concatenate_1 (Concatenate) (None, 8) 0 multiply[0][0] layer1[0][0] __________________________________________________________________________________________________ interaction (Dense) (None, 1) 9 concatenate_1[0][0] ================================================================================================== Total params: 95,065 Trainable params: 95,065 Non-trainable params: 0 __________________________________________________________________________________________________ . def make_tf_dataset( df: pd.DataFrame, targets: List[str], val_split: float = 0.1, batch_size: int = 512, see
…
